…
hell.execute_reply":"2024-07-29T14:11:43.800007Z"},"trusted":true},"execution_count":22,"outputs":[]},{"cell_type":"code","source":"model","metadata":{"execution":{"iopub.status.busy":"2024-07-29T14:11:43.802559Z","iopub.execute_input":"2024-07-29T14:11:43.802860Z","iopub.status.idle":"2024-07-29T14:11:43.809162Z","shell.execute_reply.started":"2024-07-29T14:11:43.802835Z","shell.execute_reply":"2024-07-29T14:11:43.808206Z"},"trusted":true},"execution_count":23,"outputs":[{"execution_count":23,"output_type":"execute_result","data":{"text/plain":"IMAGEModelV0(\n  (features): Sequential(\n    (0): Conv2d(3, 64, kernel_size=(3, 3), stride=(1, 1), padding=(1, 1))\n    (1): BatchNorm2d(64, eps=1e-05, momentum=0.1, affine=True, track_running_stats=True)\n    (2): ReLU()\n    (3): MaxPool2d(kernel_size=2, stride=2, padding=0, dilation=1, ceil_mode=False)\n    (4): Dropout(p=0.5, inplace=False)\n    (5): Conv2d(64, 128, kernel_size=(3, 3), stride=(1, 1), padding=(1, 1))\n    (6): BatchNorm2d(128, eps=1e-05, momentum=0.1, affine=True, track_running_stats=True)\n    (7): ReLU()\n    (8): MaxPool2d(kernel_size=2, stride=2, padding=0, dilation=1, ceil_mode=False)\n    (9): Dropout(p=0.5, inplace=False)\n    (10): Conv2d(128, 256, kernel_size=(3, 3), stride=(1, 1), padding=(1, 1))\n    (11): BatchNorm2d(256, eps=1e-05, momentum=0.1, affine=True, track_running_stats=True)\n    (12): ReLU()\n    (13): MaxPool2d(kernel_size=2, stride=2, padding=0, dilation=1, ceil_mode=False)\n    (14): Conv2d(256, 512, kernel_size=(3, 3), stride=(1, 1), padding=(1, 1))\n    (15): BatchNorm2d(512, eps=1e-05, momentum=0.1, affine=True, track_running_stats=True)\n    (16): ReLU()\n    (17): AvgPool2d(kernel_size=2, stride=2, padding=0)\n    (18): Conv2d(512, 512, kernel_size=(3, 3), stride=(1, 1), padding=(1, 1))\n    (19): BatchNorm2d(512, eps=1e-05, momentum=0.1, affine=True, track_running_stats=True)\n    (20): ReLU()\n    (21): AvgPool2d(kernel_size=2, stride=2, padding=0)\n  )\n  (flat): Flatten(start_dim=1, end_dim=-1)\n  (classifier): Sequential(\n    (0): Linear(in_features=8192, out_features=1024, bias=True)\n    (1): ReLU()\n    (2): Dropout(p=0.5, inplace=False)\n    (3): Linear(in_features=1024, out_features=512, bias=True)\n    (4): Dropout(p=0.5, inplace=False)\n    (5): ReLU()\n    (6): Linear(in_features=512, out_features=11, bias=True)\n  )\n)"},"metadata":{}}]},{"cell_type":"markdown","source":"**loss_fn and optimizer**","metadata":{}},{"cell_type":"code","source":"loss_fn = nn.CrossEntropyLoss()\noptimizer = torch.optim.Adam(model.parameters(), lr=learning_rate, weight_decay=weight_decay)","metadata":{"execution":{"iopub.status.busy":"2024-07-29T14:11:43.810469Z","iopub.execute_inpu
…
